gesture_model.tflite (tflite, 365480 bytes, 6 tensors)

sequential/dense_1/BiasAdd/ReadVariableOp f4 [15]
0	0xbb4f3df9	-0.0031622632
1	0xbb4f3dcf	-0.0031622534
2	0xbbd3cb76	-0.0064634634
3	0x00000000	0.0
4	0xbb4f3dcd	-0.003162253
5	0xbb617f38	-0.0034408104
6	0x3ba6fbfb	0.0050959564
7	0x00000000	0.0
8	0x00000000	0.0
9	0x3b94d734	0.004542256
10	0x00000000	0.0
11	0x00000000	0.0
12	0x3ba49b31	0.005023383
13	0xbc92fa79	-0.0179417
14	0xbb81b83e	-0.003958731

sequential/dense_2/BiasAdd/ReadVariableOp f4 [2]
0	0x3bb1189f	0.0054045464
1	0xbbb1187e	-0.005404531

sequential/dense/BiasAdd/ReadVariableOp f4 [50]
0	0xbb4f3991	-0.0031620006
1	0xbb4f3dc1	-0.0031622502
2	0x3b8d709f	0.004316404
3	0x00000000	0.0
4	0x00000000	0.0
5	0x00000000	0.0
6	0x00000000	0.0
7	0xbb4f3dc4	-0.0031622509
8	0x00000000	0.0
9	0x00000000	0.0
10	0x3ba1b100	0.00493443
11	0x3be6af7a	0.0070399614
12	0x00000000	0.0
13	0x3b976cc1	0.004621119
14	0xbb4f3e06	-0.0031622662
15	0x00000000	0.0
16	0xbb4f3b4f	-0.0031621044
17	0x00000000	0.0
18	0x00000000	0.0
19	0x3b8ccdb1	0.0042969813
20	0x00000000	0.0
21	0xbb4f3e00	-0.0031622648
22	0xbb4f3d70	-0.0031622313
23	0x00000000	0.0
24	0x00000000	0.0
25	0x00000000	0.0
26	0x3b7e3582	0.0038789217
27	0x3b562d51	0.003268082
28	0x00000000	0.0
29	0x00000000	0.0
30	0xbb4f3e1a	-0.0031622709
31	0x00000000	0.0
32	0xbb4f3e11	-0.0031622688
33	0x3b483350	0.0030548163
34	0x3bb875ee	0.0056292927
35	0x00000000	0.0
36	0x00000000	0.0
37	0xbb4f3d3f	-0.00316222
38	0x3baf08b0	0.005341612
39	0x00000000	0.0
40	0x00000000	0.0
41	0x00000000	0.0
42	0x3b79098d	0.0038000077
43	0x00000000	0.0
44	0x00000000	0.0
45	0x00000000	0.0
46	0x00000000	0.0
47	0x3b981027	0.0046405974
48	0x3b98d29c	0.0046637785
49	0x3b5cdd28	0.0033701155

sequential/dense/MatMul f4 [50, 1800]
0	0xbd5f95d0	-0.05458623
1	0xbace3d1e	-0.0015734767
2	0x3c2274fc	0.009915587
3	0x3c856c78	0.016287073
4	0xbcec3652	-0.028834496
5	0x3d15026a	0.036379255
6	0xbcf5f025	-0.030021736
7	0xbd1a40da	-0.037659504
8	0x3b14e50a	0.0022719526
9	0x3caacf40	0.020850778
10	0xbd59f98d	-0.053216506
11	0xbc115d4e	-0.008872343
12	0x3c6e9b32	0.014563369
13	0x3ce85a11	0.02836326
14	0xbd358b3e	-0.044322245
15	0xbce2a3b0	-0.027665943
16	0xbd081e32	-0.03323192
17	0x3d36ad67	0.044598963
18	0xbd3165b0	-0.043309867
19	0xbc77bbe8	-0.015120484
20	0xbc08e47f	-0.008355259
21	0xbd192404	-0.037387863
22	0xbc5dbebc	-0.013534244
23	0x3d123135	0.03569146
24	0xbd36684d	-0.044533063
25	0x3d17c00e	0.037048392
26	0xbad1181a	-0.0015952617
27	0xbcf65bd4	-0.030073084
28	0xbbcec26e	-0.006309799
29	0xbc892eb2	-0.016745899
30	0x3b901c99	0.0043979404
31	0xbd735de3	-0.05941571
32	0x3c69516d	0.014240605
33	0xbb9dff7e	-0.004821717
34	0x3c0f06d3	0.008729654
35	0x3ce64ada	0.028111864
36	0x3c262a8d	0.010141981
37	0xbca49e67	-0.020095063
38	0xbc9d825c	-0.0192272
39	0x3d10a81c	0.03531657
40	0xbba38331	-0.0049900045
41	0xbc976ac1	-0.018483521
42	0xbd6cc5a2	-0.057805665
43	0x3d4c16e9	0.049826536
44	0x3cbedd3f	0.023298858
45	0xbce49b0f	-0.027905969
46	0x3d33af6b	0.043868463
47	0xbd4059cd	-0.04696064
48	0xbd59b026	-0.053146504
49	0x3cb7c032	0.022430513
50	0x3d363308	0.04448226
51	0x3c4c5fd2	0.012474017
52	0xbce84fd5	-0.02835838
53	0x3d4bc861	0.049751643
54	0x3c433f53	0.011916953
55	0x3a2559b8	0.00063076196
56	0xbc21ddcc	-0.009879541
57	0xbca85143	-0.020546561
58	0x3cc985c3	0.024599915
59	0x3d232a8a	0.03983549
60	0x3d300063	0.04296912
61	0x3d367d61	0.044553164
62	0x3d3dee14	0.046369627
63	0x3d161e55	0.03665002
64	0x3d1ca757	0.038245525
65	0xbd1a652c	-0.03769414
66	0xbb963098	-0.0045834295
67	0xbc6818a3	-0.01416603
68	0xbc3f6849	-0.011682578
69	0xbcd1c0ba	-0.025604594
70	0xbcfbc894	-0.030735292
71	0x3cf4fadf	0.02990478
72	0x3c7247c6	0.01478762
73	0x3d36ae24	0.044599667
74	0x3d5a66ce	0.0533207
75	0x3d1a9eff	0.037749287
76	0x3cdb0002	0.026733402
77	0xbd0d8fc6	-0.03456094
78	0xbc6b97d9	-0.014379465
79	0xbd4c0698	-0.049810976
80	0x3c87dfba	0.016586173
81	0xbc39c95c	-0.011339512
82	0xbcd6040c	-0.026124977
83	0xbd243648	-0.04009083
84	0xbd4dd8ba	-0.050255515
85	0x3bd16b32	0.0063909525
86	0xbd68ea33	-0.056863975
87	0xbd3e8c73	-0.04652066
88	0xbd1b7e63	-0.03796233
89	0x3bfab806	0.007651332
90	0x3d5699a0	0.052392602
91	0xbb8b3d34	-0.0042492393
92	0x3d43b149	0.047776494
93	0x3d3f99ac	0.046777412
94	0xbcb14b65	-0.021642396
95	0xbc56e105	-0.013115172
96	0xbd7483b0	-0.0596959
97	0xbbae6ac3	-0.0053227856
98	0x3cab9570	0.02094528
99	0x39fe48c8	0.00048500882
100	0xbd516965	-0.051125903
101	0xbc318659	-0.010835254
102	0x3cc04b0d	0.023473287
103	0x3d334ff0	0.043777406
104	0x3d49d9a2	0.049279816
105	0x3d12f9e9	0.035882864
106	0xbc841972	-0.016125415
107	0xbb299682	-0.0025877063
108	0x3ba80652	0.0051277066
109	0xbcfaece6	-0.03063054
110	0xbc4d1c10	-0.012518898
111	0xbcfa5002	-0.030555729
112	0xbc824e76	-0.015906554
113	0x3d1229ac	0.035684273
114	0xbd739144	-0.059464708
115	0xbcf04a20	-0.02933222
116	0x3c8166b9	0.015796052
117	0x3d058207	0.032594707
118	0x3b2632ba	0.0025359825
119	0x3d09cd7f	0.033643242
120	0xbc0352b6	-0.008015325
121	0xbcf822a4	-0.030289955
122	0xbcdb9835	-0.026805976
123	0xbc82bef5	-0.015960196
124	0x3d2937f6	0.041313134
125	0x3d0a12a0	0.03370917
126	0x3c1b4338	0.009476475
127	0x3cd80e97	0.026374144
128	0x3d17a51a	0.037022687
129	0x3cb9b120	0.022667468
130	0x3cfdb19d	0.030968482
131	0xbd2e889f	-0.04261076
132	0xbbb9a257	-0.0056651044
133	0x3d133b09	0.035944972
134	0xbd4734b6	-0.048634253
135	0x3b6c4424	0.0036051357
136	0x3be7919c	0.0070669185
137	0xbb26856f	-0.0025409122
138	0xbd5ea3c5	-0.0543554
139	0x3a7971e4	0.0009515567
140	0x3a5b0f4c	0.00083564664
141	0xbcec2fd7	-0.028831406
142	0xbcf95aa2	-0.030438725
143	0x3d484080	0.048889637
144	0xbc8abbe4	-0.016935296
145	0xbcf0bc05	-0.02938653
146	0x3cc9b7c2	0.024623755
147	0xbc442e60	-0.011973947
148	0x3d4970a8	0.049179703
149	0xbc999d6a	-0.018751819
150	0x3d3bfdc7	0.045896318
151	0x3cd4596f	0.025921552
152	0x3c38e0fe	0.011284111
153	0xbd39da2b	-0.045374077
154	0xbd6ff805	-0.05858614
155	0xbb99120a	-0.00467134
156	0xbc3ea8c8	-0.01163692
157	0xbc1319d2	-0.008978324
158	0xbc483bf7	-0.012221328
159	0xbcad6b2e	-0.021169271
160	0x3cc2f45f	0.023798166
161	0xbb9cece3	-0.0047889813
162	0xbd24b34b	-0.04021005
163	0xbd2b8fd9	-0.04188523
164	0xbd48ea1d	-0.049051393
165	0xbd132d9a	-0.03593216
166	0x3d0f58cb	0.03499679
167	0x3ca718ed	0.020397628
168	0xbd68feb8	-0.056883544
169	0x3d125eab	0.035734814
170	0x3c9e1763	0.019298261
171	0xbd69e54c	-0.05710344
172	0x3c99bb06	0.018765938
173	0xbd46ed9a	-0.04856644
174	0x3d5a79be	0.05333876
175	0x3c888737	0.016666038
176	0x3d1bf5bc	0.038076147
177	0x3cb7a5af	0.022417871
178	0x3cf6efa5	0.030143568
179	0xbc12cbbb	-0.008959706
180	0xbd4d9eaa	-0.050200142
181	0x3b8b1d14	0.0042454097
182	0xbca714ac	-0.0203956
183	0x3d262ede	0.04057204
184	0x3b8e2eee	0.0043390905
185	0x3ce8809c	0.028381638
186	0xbb09a83e	-0.0021004821
187	0x3c8fb7fa	0.017543782
188	0xbd528b3c	-0.051402315
189	0x3ca8936d	0.02057811
190	0x3ba2311e	0.004949703
191	0xbd33737c	-0.043811306
192	0x3c662f70	0.014049396
193	0xbd30372a	-0.04302136
194	0x3d1fccb4	0.03901358
195	0xbd554980	-0.05207205
196	0xbd583c3e	-0.052791826
197	0x3bf54281	0.0074847345
198	0x3d51418f	0.051087912
199	0x3d3f7697	0.046743955
200	0xbcb86a49	-0.022511618
201	0x39a5bfb0	0.0003161407
202	0xbc553274	-0.013012517
203	0x3c827fe9	0.015930133
204	0xbd1b0bb2	-0.03785295
205	0xbd6c5fad	-0.05770843
206	0x3bc0912e	0.005876682
207	0x3d136daa	0.035993256
208	0x3d50c860	0.050972342
209	0xbcd9a24f	-0.026566653
210	0xbc89b29c	-0.0168088
211	0x3d0948c6	0.033516668
212	0x3c3fed00	0.01171422
213	0x3ca9f0d3	0.020744717
214	0xbb3d03fe	-0.002884149
215	0xbcba7690	-0.022761613
216	0xbd29501e	-0.04133617
217	0x3bf8e935	0.00759616
218	0xbcd2dba2	-0.025739495
219	0xbce054fe	-0.027384277
220	0xbcb71bc6	-0.02235211
221	0xbd084a28	-0.033273846
222	0xbd754eed	-0.059889723
223	0x3d20f633	0.039297294
224	0x3ce5dcd8	0.028059408
225	0xbcb559c2	-0.022137526
226	0xbc83cda2	-0.016089264
227	0x3d13897e	0.036019795
228	0xbd08e97e	-0.0334258
229	0xba566138	-0.0008177939
230	0x3c4cc523	0.012498173
231	0xbd6c78ae	-0.057732277
232	0x3cda8923	0.02667672
233	0xbb00cbbf	-0.0019652692
234	0x3ab8768e	0.0014073418
235	0x3bbb9d82	0.0057255635
236	0x3a123eb8	0.0005578804
237	0x3cd943d6	0.026521605
238	0x3bc92e3a	0.006139544
239	0xbc792658	-0.015206896
240	0xbc00e583	-0.00786722
241	0x3a63bb0c	0.0008687235
242	0x3cb5b290	0.022179872
243	0xbc0d1b86	-0.008612519
244	0xbcae5707	-0.021281732
245	0xbc6a1260	-0.0142866075
246	0xbcd85f0e	-0.026412513
247	0xbc0301bc	-0.007996019
248	0x3cdda475	0.027055958
249	0x3cffd27b	0.031228295
250	0xbd6e517b	-0.058183175
251	0xbc1f5ab1	-0.009726212
252	0xbb6ddbe5	-0.0036294397
253	0xbc5b4212	-0.013382452
254	0x3d2cce3c	0.042188868
255	0x3cbd076c	0.023074828

sequential/dense_1/MatMul f4 [15, 50]
0	0x3e51038a	0.20411506
1	0x3e72db0c	0.23716372
2	0xbe81eb1e	-0.25374693
3	0xbe8e981d	-0.27850428
4	0xbe11cbf0	-0.14237952
5	0x3d8fc644	0.07020238
6	0x3e722558	0.23647058
7	0x3e23f30f	0.16010688
8	0xbd85316e	-0.065035686
9	0x3d033b18	0.032038778
10	0x3e3e00cc	0.18554991
11	0x3d010102	0.0314951
12	0x3e25bdbe	0.16185662
13	0x3e4e20bb	0.20129673
14	0x3e93a6a2	0.28838068
15	0x3c983a70	0.018582553
16	0x3e4de92b	0.20108478
17	0x3e99f062	0.3006621
18	0x3e415952	0.18881729
19	0xbe447838	-0.19186485
20	0x3e3e1b3e	0.1856508
21	0xbc82a5ec	-0.015948258
22	0x3c8a6e1a	0.016898204
23	0x3d595b88	0.053065807
24	0x3e75383c	0.23947233
25	0x3e8079c8	0.25092912
26	0xbe8a6768	-0.27032018
27	0x3d74ef18	0.05979833
28	0x3e90b78c	0.28265035
29	0x3e18d45e	0.14924762
30	0x3e99ef4e	0.30065387
31	0x3d8a5c28	0.06755859
32	0x3df88875	0.12135402
33	0xbe4f0efe	-0.20220563
34	0xbe3878b9	-0.18014802
35	0x3e127d94	0.14305717
36	0xbe02e8c7	-0.1278411
37	0xbe4368be	-0.19082925
38	0x3e8583c5	0.26077095
39	0x3e1ae0b6	0.15124783
40	0x3d9e8444	0.077400714
41	0xbdddd0ac	-0.108308166
42	0xbe4d17d3	-0.2002862
43	0x3e8db4aa	0.27676898
44	0x3d9d66a0	0.0768559
45	0xbe9b2719	-0.30303267
46	0xbddb9290	-0.10721314
47	0xbe1c9fa4	-0.15295273
48	0x3e8b1114	0.27161467
49	0xbe2f9505	-0.1714669
50	0x3e5aa778	0.21352947
51	0xbd44af60	-0.048018813
52	0xbe5baaf9	-0.2145194
53	0x3e5faab0	0.21842456
54	0xbd86596c	-0.065600246
55	0xbdb643da	-0.088996604
56	0x3e6502d4	0.2236436
57	0x3cb96bbe	0.022634383
58	0x3e01a1ae	0.12659332
59	0xbe99529b	-0.29945835
60	0xbd90fb44	-0.07079175
61	0xbe3544f8	-0.1770209
62	0x3dd66238	0.104679525
63	0xbdc8de07	-0.09807973
64	0x3dad3e93	0.08459201
65	0xbde0fb50	-0.10985434
66	0xbe639539	-0.22224893
67	0x3e9228a4	0.2854663
68	0x3e4c0cf0	0.1992681
69	0x3e04e3e7	0.12977563
70	0x3e84dce8	0.25949788
71	0xbd4f8d33	-0.050671767
72	0xbd17a358	-0.03702101
73	0xbe051a6e	-0.12998363
74	0xbdc8f660	-0.09812617
75	0xbe9b1abd	-0.30293837
76	0xbd9fc2cc	-0.078008264
77	0xbe8d6853	-0.27618656
78	0x3e203c24	0.15647942
79	0xbe4f3502	-0.20235065
80	0x3e8408f6	0.25788087
81	0xbd37edf0	-0.04490465
82	0x3dc66d9d	0.09688876
83	0xbe94943a	-0.29019338
84	0x3e8c74b6	0.27432793
85	0x3e975c50	0.29562616
86	0xbdfd8894	-0.12379566
87	0x3e037d13	0.12840681
88	0xbdb3645f	-0.08759379
89	0xbe7fb34d	-0.24970742
90	0xbe2b4d51	-0.16728713
91	0x3e495d38	0.19664466
92	0x3e2db71b	0.1696438
93	0xbe320ca8	-0.1738764
94	0xbde4b638	-0.11167568
95	0xbdcf08ba	-0.10109086
96	0x3e8ac4e6	0.27103347
97	0x3e38ddc9	0.18053354
98	0x3e750aad	0.23929854
99	0xbd5d88b5	-0.054085452
100	0xbe5ee7f6	-0.21768174
101	0xbe177588	-0.14790928
102	0xbdb50e39	-0.088406034
103	0x3e79c6a0	0.24392176
104	0xbe3f889a	-0.18704453
105	0xbe3b5cc9	-0.18297113
106	0xbd0acdb8	-0.033887595
107	0x3e3ebfa0	0.18627787
108	0x3ddf9ff8	0.109191835
109	0x3cef2bd0	0.029195696
110	0xbdcc72ee	-0.099828586
111	0xbca8c95f	-0.020603834
112	0xbe98df4c	-0.29857862
113	0xbcc66359	-0.024217295
114	0xbe72ed52	-0.23723343
115	0x3ab7df00	0.0014028251
116	0x3db55938	0.08854908
117	0x3d45bd20	0.048276067
118	0x3d653c90	0.05596596
119	0x3de6f5de	0.11277364
120	0x3e4c07c4	0.19924837
121	0xbd32bc08	-0.04363635
122	0x3e72387c	0.2365436
123	0x3e3855fc	0.1800155
124	0xbd0d9448	-0.03456524
125	0xbe94d9e2	-0.2907248
126	0x3e5c30ea	0.21503034
127	0x3e23fd83	0.16014676
128	0xbcdceb80	-0.026967764
129	0x3e827940	0.2548313
130	0x3e8b5194	0.27210677
131	0x3cd10a70	0.025517672
132	0x3da46790	0.080275655
133	0xbe458720	-0.19289827
134	0xbe405f30	-0.18786311
135	0xbe8e880a	-0.27838165
136	0x3e22b998	0.15891111
137	0xbdf6a96a	-0.12044032
138	0x3e12c488	0.14332783
139	0xbe0d51e3	-0.13800769
140	0x3e12d978	0.1434077
141	0xbe046101	-0.12927629
142	0xbe129fc1	-0.14318754
143	0xbd7b1f68	-0.06130925
144	0x3baab040	0.005208999
145	0x3e35334e	0.17695352
146	0xbe184dae	-0.14873382
147	0xbd336b45	-0.043803472
148	0x3db4b10e	0.08822833
149	0x3d9184ec	0.07105431
150	0x3e6074d4	0.21919566
151	0xbd801142	-0.06253292
152	0xbdd71c58	-0.10503453
153	0xbe0a89f4	-0.13529187
154	0x3db113b0	0.08646333
155	0x3c0c4d40	0.00856334
156	0x3e83744c	0.25674665
157	0x3d1af6c8	0.037833005
158	0x3e5a7a08	0.21335614
159	0x3dd2db74	0.102957636
160	0xbd3d5670	-0.04622501
161	0x3cd57980	0.026058912
162	0xbe807f4a	-0.25097114
163	0x3e602920	0.21890688
164	0x3e575dec	0.21031922
165	0xbe555aa2	-0.20835355
166	0x3e63a7d8	0.22231996
167	0x3e668544	0.22511774
168	0xbe691f7d	-0.22765918
169	0xbe994edb	-0.29942974
170	0x3e0278ac	0.12741345
171	0x3e075b16	0.1321834
172	0xbd6b22c4	-0.057406202
173	0xbe4f1193	-0.20221548
174	0xbcf30b60	-0.02966851
175	0x3e158c12	0.14604214
176	0xbdf60042	-0.12011768
177	0xbdd40876	-0.10353176
178	0x3e693b40	0.22776508
179	0xbe8b6f94	-0.27233565
180	0xbe737e1d	-0.23778577
181	0xbdcf72b0	-0.10129297
182	0x3dec17b0	0.115279555
183	0x3e8d2e62	0.2757445
184	0xbe6eea24	-0.23331505
185	0xbda405ce	-0.0800892
186	0x3e4ce8c4	0.20010668
187	0x3e0aa140	0.13538074
188	0x3e458126	0.19287547
189	0x3e8b8a02	0.2725373
190	0x3e3e86b8	0.18606079
191	0xbe00b6f5	-0.12569793
192	0x3e4f0c20	0.20219469
193	0x3e69f05c	0.22845596
194	0xbdb977fa	-0.09056087
195	0xbe6f74e4	-0.23384434
196	0xbd1e1900	-0.03859806
197	0x3dab071c	0.083509654
198	0xbde2c25c	-0.11072227
199	0xbe559ca4	-0.20860535
200	0xbe4f831f	-0.20264862
201	0xbe1a8456	-0.15089545
202	0xbdc00d99	-0.093775935
203	0x3e8755fc	0.26432788
204	0xbe2d645e	-0.16932818
205	0x3d8dfcc0	0.06932974
206	0xbe3bd8e0	-0.1834445
207	0xbe543715	-0.20724137
208	0x3e3570f6	0.17718872
209	0x3d09a1e8	0.03360167
210	0x3e98cd77	0.29844257
211	0x3da2e0cb	0.07953032
212	0x3d2b1b70	0.041774213
213	0xbe7344b8	-0.23756683
214	0x3caace4d	0.020850325
215	0x3c5d4d60	0.013507217
216	0xbdadcf67	-0.084868245
217	0x3dcfb3dc	0.10141727
218	0xbd54f508	-0.051991493
219	0xbddacda3	-0.10683753
220	0xbe47386c	-0.19455117
221	0x3e8b9d32	0.27268368
222	0x3e78692e	0.24258873
223	0xbe1ee2ad	-0.15516157
224	0x3d901af4	0.07036391
225	0xbe89af3e	-0.26891512
226	0xbe8729be	-0.26399034
227	0x3de54ae5	0.111959256
228	0xbe73d783	-0.2381268
229	0x3e3e6176	0.18591866
230	0x3e81e748	0.25371766
231	0xbdb6ed8a	-0.08932026
232	0x3de0fc66	0.10985641
233	0x3e423b2e	0.18967888
234	0xbda41bc5	-0.08013109
235	0xbd99ef96	-0.075164005
236	0xbe0f7dd2	-0.1401284
237	0x3dd8650a	0.10566147
238	0x3e71e2b7	0.23621641
239	0xbc0fe300	-0.008782148
240	0xbe2db0b3	-0.16961937
241	0x3e24b940	0.16086292
242	0xbe1f2143	-0.15540032
243	0xbdc1bcdc	-0.0945985
244	0xbe17c725	-0.14822061
245	0xbe8398ee	-0.25702614
246	0xbe951eb7	-0.29124996
247	0xbdb7a7cb	-0.08967551
248	0xbe5ebbe1	-0.21751358
249	0x3de36f42	0.11105205
250	0x3df8efe5	0.12155131
251	0xbc987755	-0.01861159
252	0xbe5ca436	-0.21547017
253	0x3e5c0308	0.21485531
254	0x3e4da680	0.20083046
255	0x3e936dc0	0.2879467

sequential/dense_2/MatMul f4 [2, 15]
0	0x3e11db51	0.14243819
1	0x3e96af78	0.29430747
2	0xbd216b49	-0.039408956
3	0x3eeb6498	0.45975184
4	0xbc8ce79f	-0.01720029
5	0xbf14786e	-0.5799626
6	0x3dbe8c13	0.09304061
7	0x3e9dd26c	0.30824602
8	0xbe16ab2a	-0.14713731
9	0x3e92bdab	0.2866033
10	0x3c4d8500	0.012543917
11	0x3d59cfd0	0.0531767
12	0x3f15b71b	0.5848252
13	0x3e59b8d3	0.21261911
14	0xbec562c3	-0.38551912
15	0x3ec291c4	0.38001835
16	0x3edef918	0.43549418
17	0x3f04174f	0.51598066
18	0xbe37a244	-0.17932993
19	0x3df1eea0	0.11813092
20	0xbbda2052	-0.006656685
21	0xbf15e724	-0.5855582
22	0xbdc55d88	-0.0963698
23	0x3e178c54	0.14799625
24	0xbdb5975a	-0.08866759
25	0xbed209c0	-0.41023064
26	0x3e7ffeb8	0.24999511
27	0xbda17dcc	-0.07885322
28	0x3f1531e8	0.58279276
29	0xbe949ded	-0.29026738
