src/gesture_model.tflite (tflite, 581480 bytes, 6 tensors)

sequential/dense_1/BiasAdd/ReadVariableOp f4 [15]
000000 00 00 00 00 00 00 00 00 00 00 00 00 ab 3d 4f bb
       0.0 0.0 0.0 -0.003162245
000010 7e 77 4f 3b 00 00 00 00 8f 5a 4f 3b 1d 46 4f bb
       0.0031656916 0.0 0.003163967 -0.0031627484
000020 f3 5a 4f 3b a0 dd 4f 3b 00 00 00 00 00 00 00 00
       0.0031639903 0.0031717792 0.0 0.0
000030 c4 85 4f 3b 00 00 00 00 13 3e 4f bb
       0.0031665424 0.0 -0.0031622692

sequential/dense_2/BiasAdd/ReadVariableOp f4 [2]
000000 1a e5 4f 3b 5f ec 4f bb
       0.0031722249 -0.0031726582

sequential/dense/BiasAdd/ReadVariableOp f4 [50]
000000 00 00 00 00 00 00 00 00 00 00 00 00 00 00 00 00
       0.0 0.0 0.0 0.0
000010 c7 3d 4f bb b3 3b 4f bb df 3d 4f bb 00 00 00 00
       -0.0031622516 -0.0031621277 -0.0031622571 0.0
000020 00 00 00 00 00 00 00 00 ff 49 4f 3b 01 3e 4f bb
       0.0 0.0 0.0031629798 -0.003162265
000030 00 00 00 00 cf 91 4f 3b 00 00 00 00 9e 3d 4f bb
       0.0 0.0031672602 0.0 -0.003162242
000040 00 00 00 00 49 82 4f 3b 48 69 4f 3b 2d 4c 4f 3b
       0.0 0.003166335 0.0031648446 0.0031631098
000050 9c 52 4f 3b 00 00 00 00 af 2e 4f 3b 00 00 00 00
       0.0031634932 0.0 0.003161352 0.0
000060 00 00 00 00 00 00 00 00 64 5d 4f 3b 00 00 00 00
       0.0 0.0 0.0031641359 0.0
000070 21 3d 4f bb 00 00 00 00 a9 3d 4f bb 51 56 4f 3b
       -0.003162213 0.0 -0.0031622446 0.0031637142
000080 00 00 00 00 00 00 00 00 44 3f 4f 3b 00 00 00 00
       0.0 0.0 0.0031623403 0.0
000090 0a 48 4f 3b 7e 5e 4f 3b e8 3d 4f bb 17 53 4f 3b
       0.0031628632 0.0031642015 -0.0031622592 0.0031635219
0000a0 00 00 00 00 08 3b 4f bb 58 3d 4f bb 00 00 00 00
       0.0 -0.0031620879 -0.0031622257 0.0
0000b0 00 00 00 00 00 00 00 00 17 45 4f 3b 00 00 00 00
       0.0 0.0 0.0031626874 0.0
0000c0 00 00 00 00 62 49 4f 3b
       0.0 0.0031629433

sequential/dense/MatMul f4 [50, 2880]
000000 e2 cd 34 3d f2 76 dd bc 2c 39 50 3c 14 00 2d bd
       0.044141658 -0.027034257 0.012708943 -0.042236403
000010 4e e5 88 3c 13 8f ac bc 7c 8e 8f 3c 1b d3 a6 bc
       0.016710903 -0.021064317 0.017523997 -0.020364335
000020 f6 a5 12 3d f8 20 8f bb f8 35 14 3d 5e c3 2e 3d
       0.035802804 -0.004367944 0.03618428 0.042666785
000030 24 7b 0f bd fe 6d 34 3d 1e 9f 02 3d 40 49 78 3a
       -0.035029545 0.04405021 0.031890027 0.00094713643
000040 6c e8 20 3d 40 b9 3d ba 68 f1 fc 3c 80 3e 33 3c
       0.039284155 -0.0007237382 0.03087683 0.010940194
000050 27 78 09 bd 3c e4 26 3d 40 4c 93 ba e2 48 21 3d
       -0.03356185 0.040745005 -0.0011237934 0.039376147
000060 71 6f bf bc f8 69 ad 3b a0 15 91 3c ac 33 fe 3c
       -0.02336857 0.0052921735 0.017710507 0.031030498
000070 0c 9d 9a bc d2 39 85 3c fa c1 c0 bc 80 17 aa 3b
       -0.018873714 0.016262922 -0.023529995 0.0051907897
000080 93 4f 0a bd 3c 55 bd bc 18 a7 25 bd fc df 0e 3d
       -0.033767294 -0.023111932 -0.040442556 0.034881577
000090 40 08 25 3d c2 e6 a1 bc 50 66 25 3d 98 7b a7 3b
       0.04029107 -0.019763354 0.040380776 0.005111169
0000a0 dc 88 16 3d 04 94 d4 bc a7 8b e0 bc 2c a7 0a 3d
       0.036751613 -0.025949486 -0.027410341 0.033850834
0000b0 ff 92 21 bd 7c 30 d8 3c 9c eb 35 3d 10 96 d2 3c
       -0.039446827 0.026390307 0.044414148 0.025706321
0000c0 b8 1f 86 bb 30 96 d8 3c c8 39 03 bd 8c 60 0d bd
       -0.0040931366 0.026438802 -0.032037526 -0.034515902
0000d0 02 cd 18 bd 88 03 3f 3c 05 ba b2 bc e0 8f fe 3a
       -0.037304886 0.011658557 -0.021817217 0.001942154
0000e0 44 4a b6 3c 44 c8 ec 3c 20 df 0d 3d bc 9e 2d 3d
       0.02225221 0.028904088 0.034636617 0.04238771
0000f0 f8 26 e0 3c 4c 93 3a 3c 5d 79 31 bd 20 e5 42 3b
       0.027362332 0.011387657 -0.04332863 0.002973862
000100 c8 18 28 bc 68 a4 c6 bb b8 fb 02 bc 00 f2 07 bb
       -0.010259815 -0.006062079 -0.007994585 -0.0020743608
000110 5f 0c d1 bc c0 0f 2a ba 1c 84 07 bd 99 18 86 bc
       -0.025518594 -0.0006487332 -0.033084974 -0.016369151
000120 d4 55 76 3c 9c 06 90 3c 3d 1b 31 bd bc 21 17 3c
       0.015035111 0.017581277 -0.043238867 0.0092243515
000130 40 00 01 ba b8 41 f4 3b 90 2d f2 3c d4 74 29 3c
       -0.0004920997 0.0074541233 0.029562742 0.010342795
000140 9b 84 2e bd 28 bf 83 bb a9 09 f7 bc b4 fa 06 3d
       -0.04260693 -0.0040205903 -0.030155974 0.032953933
000150 d4 e6 33 bc e6 c6 ab bc 7e 44 f3 bc a0 90 00 3c
       -0.010980327 -0.020968866 -0.029695746 0.007846981
000160 6c 3c 38 3c fd 68 38 bd 59 f2 b7 bc 84 f3 0b bc
       0.011244874 -0.045022 -0.022454428 -0.008541945
000170 ad 5d f3 bc 00 55 02 3b 80 a0 46 ba 92 3c 9a bc
       -0.029707754 0.001988709 -0.0007577017 -0.01882771
000180 52 a4 1d 3d ca 88 1b 3d 0c 22 32 bc 66 ed c6 bc
       0.038486786 0.03797225 -0.010872375 -0.024283122
000190 92 ff 1e 3d 9e 2b 18 3d c4 4d e9 3c 2f 2e 36 bd
       0.03881795 0.03715097 0.028479464 -0.044477638
0001a0 40 f0 27 bc 38 70 89 3b ba 76 9c bc 9a 65 10 3d
       -0.010250151 0.0041942857 -0.019099582 0.035253145
0001b0 44 0b b7 bc cc 17 31 bd 30 f1 08 bc 71 55 c9 bc
       -0.022344239 -0.043235585 -0.008358285 -0.024576874
0001c0 63 c7 01 bd 78 b1 9b 3c 34 f8 41 3c 18 7a ed 3b
       -0.03168429 0.019005522 0.011838961 0.0072472207
0001d0 d4 db 54 3c 41 53 c8 bc 64 53 16 3d b2 19 8b bc
       0.012991864 -0.024453761 0.03670062 -0.016980026
0001e0 38 43 84 bb a5 d0 82 bc 31 e6 26 bd 70 3a e3 bb
       -0.0040363334 -0.01596863 -0.04074687 -0.0069344565
0001f0 0d f2 f1 bc 48 34 8d bb 57 35 0a bd 52 39 ec bc
       -0.029534364 -0.004309211 -0.033742275 -0.028835926
000200 36 ce 7b bc 18 30 b7 3c 24 56 4f 3c 64 e4 a4 3c
       -0.015368989 0.0223618 0.012654815 0.020128436
000210 a4 7f 16 3d 28 1a ea 3c 6f e3 21 bd 6c 48 0a 3c
       0.03674282 0.028576925 -0.03952354 0.008440118
000220 00 f0 95 39 07 11 9b bc 80 77 cb 3c d1 a5 d5 bc
       0.0002859831 -0.018929018 0.024837255 -0.026080044
000230 81 81 e5 bc 18 9e b6 bc 90 9d b6 bb 00 e7 54 b9
       -0.028015854 -0.022292182 -0.005572982 -0.0002030395
000240 50 ce aa 3b 6c 77 19 3c c2 e2 25 3d 44 0e d2 3c
       0.0052125826 0.009366851 0.040499456 0.025641568
000250 1a 84 a2 bc dc f8 ff 3c 08 2d ad 3c a0 de 1c 3b
       -0.019838382 0.031246595 0.021139637 0.0023936406
000260 e6 57 11 bd ee 6c 21 3d b0 56 c6 bc 49 79 c2 bc
       -0.035484217 0.039410524 -0.024211258 -0.023739474
000270 92 38 34 3d 9c b7 c7 bc e8 d6 06 bd 10 7a ad 3c
       0.043999262 -0.024379544 -0.032919794 0.021176368
000280 8c f9 29 bc 66 60 f5 bc bc d4 8f 3c 10 3c 27 bb
       -0.010374438 -0.029953193 0.017557494 -0.0025517978
000290 50 7f ae bc 6d a8 e7 bc 40 90 4c 3b 60 56 e0 ba
       -0.021300942 -0.028278554 0.003121391 -0.0017115586
0002a0 56 ad 94 bc 60 5d 10 bc 52 bd c6 bc b8 22 c4 bb
       -0.01814906 -0.008811325 -0.024260197 -0.005985584
0002b0 68 a4 d0 3c 90 3c 0c bc 0a 01 8d 3c 30 fc 75 bb
       0.02546902 -0.008559361 0.01721241 -0.0037534349
0002c0 68 74 95 3c 7b fa fc bc fc f3 2e bd c0 76 63 3a
       0.018243983 -0.030881157 -0.04271315 0.0008677058
0002d0 38 0e 25 bd c9 1f 21 bd 5c 55 02 3d d9 fd 06 bd
       -0.040296763 -0.039336953 0.031819686 -0.03295693
0002e0 78 1b 39 bc 10 04 12 bd b4 ea 03 bc b3 d3 cc bc
       -0.011298053 -0.035648406 -0.008051563 -0.02500329
0002f0 36 12 2a 3d 34 a2 0f 3d d8 d2 f2 3c cb 3e 21 bd
       0.041521274 0.0350668 0.029641554 -0.039366525
000300 8c dc f9 bc 34 f0 b7 3c 73 4f fc bc b8 35 d9 3c
       -0.030500673 0.022453405 -0.030799603 0.026514873
000310 80 6d 12 bd 88 b7 99 3c 30 ad c4 bb ad b8 ca bc
       -0.03574896 0.018764272 -0.006002091 -0.024746263
000320 a4 eb 46 bc 84 a7 75 bc b0 2c c9 3b 08 b8 2f 3c
       -0.012141142 -0.014993552 0.0061393604 0.010725029
000330 d3 be 29 bd a8 97 c8 3c 36 89 34 bd c0 0a 14 3b
       -0.04144175 0.024486378 -0.044076167 0.0022589415
000340 dc d5 12 bd 44 16 35 bd 5c 57 9e 3c 94 4d 91 3c
       -0.035848483 -0.044210687 0.019328766 0.017737187
000350 fe 42 77 bc ec ce 86 3c ea 33 07 3d 1b 10 04 bd
       -0.015091656 0.01645609 0.033008493 -0.032241922
000360 00 81 4f 3c f2 7c 23 bd 6c c3 3e bc 83 eb ce bc
       0.012665033 -0.03991408 -0.011643272 -0.025258785
000370 20 5b 66 bb 9c 44 21 bd a0 e1 b1 bc 7c 99 c1 3c
       -0.003514953 -0.03937207 -0.021714032 0.023632757
000380 4c 49 a5 bc 14 99 0e 3c 87 22 da bc fe 42 26 3d
       -0.020176552 0.008703489 -0.026627792 0.040591232
000390 e8 ed 4b 3c a8 e4 81 3c 84 f2 24 3d b4 e5 13 bc
       0.012446858 0.015856102 0.040270343 -0.009026933
0003a0 c0 3a 72 bc 1d d6 bd bc f0 11 a7 3c 10 c4 d8 3c
       -0.014784515 -0.023173386 0.020394295 0.026460677
0003b0 98 6c c4 3b 40 b8 a6 3c 26 5c 10 bd 18 ac 8b bb
       0.0059943907 0.02035153 -0.03524413 -0.0042624585
0003c0 1e 50 05 3d 38 ce fd 3c fc d4 92 3c da 87 30 3d
       0.03254711 0.030982122 0.017923824 0.04309831
0003d0 28 05 aa bc 32 ce a3 bc b1 e8 86 bc a8 7d fc 3b
       -0.020754412 -0.019995783 -0.016468378 0.007705409
0003e0 6b 24 d8 bc 00 1e 92 38 48 85 b5 3c 04 5c 2f 3d
       -0.026384553 6.9674104e-05 0.02215828 0.042812362
0003f0 16 17 fc bc 57 68 9f bc 32 c5 12 bd c4 86 5a 3c
       -0.030772727 -0.019458933 -0.03583259 0.013337795

sequential/dense_1/MatMul f4 [15, 50]
000000 32 95 3d 3e 7a f2 98 be c4 e7 01 be 7d 54 92 be
       0.18513945 -0.29872495 -0.12686068 -0.28580084
000010 30 ea 61 be e6 12 39 3e 62 dc 63 be 28 17 96 be
       -0.22061992 0.18073615 -0.22252038 -0.29314542
000020 68 3f 94 3d 9a 8a 33 3e 6c de 3d 3e 20 65 3c 3e
       0.07238656 0.17533341 0.18541878 0.18397951
000030 fc c8 3b 3e b1 56 51 be 6e 9a 92 3e a8 df 65 3e
       0.18338388 -0.20443226 0.28633446 0.224486
000040 20 83 9b bc 0c 06 b9 3d be 79 8b bd b6 05 29 be
       -0.018983424 0.090343565 -0.0681033 -0.16506085
000050 90 50 52 be 80 7b 1f bb 44 af da 3d d0 20 9a 3d
       -0.20538545 -0.0024335086 0.106779605 0.0752579
000060 c7 75 21 be b0 09 fd 3d 74 db 38 be 6a 50 52 be
       -0.15767585 0.12355363 -0.18052465 -0.20538488
000070 98 c8 3d 3d a8 93 d5 bd 5e f3 42 be d8 fc ec 3d
       0.04633388 -0.10428554 -0.1903815 0.115716636
000080 71 cb 93 be fa 54 89 be 88 e7 d2 3d 30 01 9e bc
       -0.2886615 -0.26822644 0.10298067 -0.019287676
000090 ba aa 1f 3e ac a8 6f be 88 9b 5f 3d 50 06 60 3e
       0.15592471 -0.23404187 0.054591686 0.21877408
0000a0 da ba 16 be ce 8d 86 be 35 58 9a be ac 44 db bd
       -0.14719716 -0.26280063 -0.30145422 -0.107064575
0000b0 dc f9 cc 3d 66 06 f4 bd c0 9e ca 3c 4e 8f 9a 3e
       0.100085944 -0.11915283 0.024733901 0.30187458
0000c0 08 9c 30 3d 98 08 15 3e 06 6d 26 3e f4 0f 2c be
       0.043117553 0.1455406 0.16252527 -0.1680296
0000d0 c8 29 77 3d 9e b6 4e be 70 4f a4 3d 94 a7 d3 bd
       0.06034258 -0.2018685 0.08022964 -0.10334697
0000e0 38 b4 22 bd 2c c6 0f 3e 8a 71 40 be 40 e7 77 3c
       -0.03972265 0.1404044 -0.18793312 0.015130818
0000f0 b8 59 8c be 40 6f 9f bc 1c bc 53 be d2 1b 8e be
       -0.274122 -0.019462228 -0.20677227 -0.277556
000100 4c 3e 7d 3e c0 e2 b8 3c 26 c9 84 3e ca 3e 98 3e
       0.24730796 0.02256906 0.25934714 0.29735404
000110 70 01 52 be 70 ff 10 3d 28 7f b9 bd fc 63 b1 3d
       -0.20508361 0.035399854 -0.09057456 0.08661649
000120 c8 1a 3e 3d 10 f2 a4 3c d1 45 87 be 20 8a 1b 3d
       0.04641226 0.020134956 -0.26420453 0.037973523
000130 a4 3c 15 be f8 1e d3 3d 4e 51 97 3e 60 a1 a5 bc
       -0.14573914 0.10308641 0.29554218 -0.020218551
000140 80 5d c9 3b 1e 55 a1 bd 60 f6 c4 3d 1a 85 85 3e
       0.0061451793 -0.07877563 0.09617305 0.2607811
000150 f8 22 46 bd 46 13 8e 3e da f3 96 bd a2 8a d7 bd
       -0.048373193 0.2774908 -0.0737073 -0.10524489
000160 e0 3b 56 3d 70 2e b2 3c 92 5b 7a be 54 59 77 3e
       0.052303195 0.021750659 -0.24448994 0.2415517
000170 9e c5 9d bd 50 0f bc 3c f8 ab 6c 3e bc 3a 96 3e
       -0.07703708 0.02295652 0.23112476 0.29341686
000180 e4 b4 8a 3e 5a ab 91 bd e0 9b 98 be 40 bb 99 bb
       0.27091134 -0.07112761 -0.29806423 -0.0046915114
000190 55 39 4c be 1e dc 91 be aa 0a 3e 3e bc e5 39 be
       -0.19943745 -0.2848825 0.18558756 -0.18154043
0001a0 6e 29 46 be 80 fc 72 bc f1 4c 0c be 40 78 32 3e
       -0.19351742 -0.0148307085 -0.13701226 0.17428684
0001b0 6c 96 81 3d 54 21 66 bd 7c 63 70 bd a1 f9 3d be
       0.06327519 -0.056184128 -0.058688626 -0.18552257
0001c0 16 13 fe bd 50 e2 69 3e 84 bf 9a be 54 c6 93 3d
       -0.12405984 0.22840238 -0.3022424 0.072155625
0001d0 10 09 65 3e c8 1a 57 bd 9a 41 13 3e e2 67 46 be
       0.22366738 -0.052515775 0.14380494 -0.19375566
0001e0 80 d8 44 bd ef f7 6f be da c5 8d be b6 42 03 be
       -0.048058033 -0.23434423 -0.2769001 -0.12818417
0001f0 c0 27 af 3b 42 55 82 bd 98 01 00 3e d1 20 82 be
       0.0053453147 -0.06363918 0.12500608 -0.25415662
000200 a0 c2 a8 3d 70 65 13 bd 7e fb 4c be 92 a2 ff bd
       0.08240247 -0.03598541 -0.20017812 -0.1248218
000210 80 de 56 3b 8e da 8a 3e 10 0a 23 3d 70 28 3c be
       0.003278643 0.2711987 0.03980452 -0.183748
000220 0c d3 2a 3e 2a f4 25 be 29 89 19 be 24 fc 01 3e
       0.1668207 -0.16206422 -0.14993729 0.1269384
000230 ac 5e 9e 3d 80 c8 c9 3b 77 76 15 be 70 25 a0 3c
       0.07732901 0.0061579347 -0.14595972 0.019549102
000240 44 6f c0 bd 28 32 d4 3d 8b 35 9a be e0 cc 49 3e
       -0.09396222 0.10361129 -0.30118975 0.1970706
000250 7a 88 87 be 7c 15 04 3e d4 72 95 be d0 78 6e 3d
       -0.2647131 0.1289882 -0.2918917 0.058220685
000260 80 d6 1b 3e 4e 77 b5 bd b8 9e 94 3e fd 45 92 3e
       0.15218544 -0.08860646 0.29027343 0.28569022
000270 a8 32 3d bd b0 d7 d1 3d 0d ec 33 be 80 4f 5b 3e
       -0.046190888 0.10246217 -0.17570515 0.21417046
000280 22 13 5a 3e d3 05 5c 3e 6b d8 1b be d7 d5 49 be
       0.21296361 0.21486597 -0.15219276 -0.1971048
000290 24 f0 a5 3d 74 aa 08 3e c0 ee 31 be b1 38 80 3d
       0.08102444 0.13346273 -0.17376232 0.06260813
0002a0 59 52 1e be e6 a2 a9 bd 53 56 6e be 40 53 0c 3c
       -0.154611 -0.082830235 -0.23275118 0.00856477
0002b0 12 1a 60 bd d8 c1 5c 3e 80 c7 39 bd c8 03 58 3e
       -0.054712363 0.2155832 -0.045356274 0.21095192
0002c0 57 6c 70 be 30 be ed bc b3 c5 ef 3d a4 c8 e0 3d
       -0.23478828 -0.029021353 0.1170763 0.10975769
0002d0 f6 8d 5a 3e 2d 6a 82 be 1e a4 29 be 49 71 57 be
       0.21343216 -0.2547163 -0.16566512 -0.21039309
0002e0 2b 06 e1 3d 49 28 21 be dc 22 8d be c9 82 ff 3c
       0.109875046 -0.15738024 -0.27565658 0.031190293
0002f0 bc 55 e1 3d bc 82 96 be 4c 19 91 3d 59 0f 1f be
       0.11002681 -0.29396617 0.07084903 -0.15533198
000300 d9 e9 7d 3e 3c 0e c6 3d 50 f6 80 3e 67 cd 16 be
       0.24796237 0.09670684 0.25187922 -0.14726792
000310 47 43 0d 3e 7d b8 60 be 5a 9c 9b bd 7d 17 8c 3e
       0.13795196 -0.21945377 -0.07598181 0.2736167
000320 4c cc 93 bd ee b7 d5 bd 80 4e 75 bc f0 7b 9c bc
       -0.07216701 -0.104354724 -0.014972329 -0.019102067
000330 30 c1 ee 3d ee 91 6d 3d 3d 37 66 3d 7e 21 1d be
       0.11657941 0.058000498 0.056205023 -0.15344808
000340 68 98 25 be f6 ef 18 3e e3 7e 6a 3d 73 03 99 be
       -0.1617142 0.14935288 0.057249915 -0.29885444
000350 95 8c 8c be 7e 12 6d 3e ff f5 8e be 95 28 0e bd
       -0.27451006 0.23151585 -0.27922055 -0.03470667
000360 60 72 55 3c f8 50 42 3d 2f 7b cb bd 53 85 29 3e
       0.013027757 0.0474405 -0.09935605 0.16554765
000370 9d 78 34 bd 58 a9 57 bd ef 64 78 3e 40 22 b7 bd
       -0.04406034 -0.052651733 0.24257253 -0.089420795
000380 58 de 47 be 00 fb ea 3b 33 a5 26 3e 82 21 90 3e
       -0.19518411 0.007171035 0.16273956 0.28150564
000390 a6 49 ab bd 3e d9 67 be 19 19 0a 3e 00 6e 12 3e
       -0.08363657 -0.22641465 0.13486136 0.14299774
0003a0 a4 cc 4e 3e 14 21 52 3e 14 5f 94 3e 14 df 71 3e
       0.20195252 0.20520431 0.2897879 0.23620254
0003b0 2b fc c5 bd 34 d3 0d be b6 f6 a7 bd 59 93 30 3e
       -0.09667238 -0.13850099 -0.08201353 0.17243709
0003c0 66 37 62 be 7f c1 9c bd 5f b3 85 be a0 51 e6 bc
       -0.22091445 -0.07654094 -0.26113412 -0.028115094
0003d0 02 68 fa bd dc e0 f6 bd 0a 09 ba bc b6 81 27 3e
       -0.12226869 -0.12054607 -0.022709388 0.16358075
0003e0 f2 c2 fc bd 26 2e 6e 3e 40 33 b6 3d 50 4d d3 3d
       -0.1234187 0.23259792 0.08896494 0.103174806
0003f0 ac 8d 6d 3e f0 00 16 3d c6 50 1f be 7a ea 44 3e
       0.23198575 0.036621988 -0.15558156 0.1923007

sequential/dense_2/MatMul f4 [2, 15]
000000 bc df 10 bf 96 1c a4 be dc 26 93 be 60 a4 c8 bc
       -0.5659139 -0.3205306 -0.28740585 -0.024492443
000010 a8 fe fd bd 2b 76 ae be 6d b3 0c 3f aa fb b3 bc
       -0.124020875 -0.3407453 0.5496128 -0.021970589
000020 a5 27 c4 3e 72 12 c7 3e 58 7c fd 3e 4d f9 a7 be
       0.38311496 0.3888126 0.4950893 -0.3280739
000030 04 71 f6 3e d0 47 c7 be f2 38 17 bf b4 13 8c be
       0.481331 -0.38921976 -0.59071267 -0.27358782
000040 52 66 c1 3e 33 4b a5 be 90 40 27 3e 45 8f db be
       0.37773377 -0.32283935 0.16333222 -0.42882743
000050 48 75 12 3f dd e0 bf 3e 86 ce f3 3c 14 de 5a 3e
       0.57210207 0.37476245 0.029761564 0.21373779
000060 da 04 0a bf c0 6f 0d bd 40 f6 b8 3e bb 4e 88 3d
       -0.5391365 -0.0345304 0.36125374 0.06655642
000070 fa 59 81 be 78 54 2a 3e
       -0.2526396 0.16633785
